…
al:Box(6,), observation:Box(56,))', 'action_space': 'Box(9,)', 'n_envs': 1, 'num_timesteps': 0, '_total_timesteps': 60000000, '_num_timesteps_at_start': 0, 'eval_env': 'None', 'seed': 0, 'action_noise': 'None', 'start_time': 1750609843.295049, 'policy': 'MultiInputPolicy(\n  (actor): Actor(\n    (features_extractor): CombinedExtractor(\n      (extractors): ModuleDict(\n        (achieved_goal): Flatten(start_dim=1, end_dim=-1)\n        (desired_goal): Flatten(start_dim=1, end_dim=-1)\n        (observation): Flatten(start_dim=1, end_dim=-1)\n      )\n    )\n    (latent_pi): Sequential(\n      (0): Linear(in_features=68, out_features=256, bias=True)\n      (1): ReLU()\n      (2): Linear(in_features=256, out_features=256, bias=True)\n      (3): ReLU()\n    )\n    (mu): Linear(in_features=256, out_features=9, bias=True)\n    (log_std): Linear(in_features=256, out_features=9, bias=True)\n  )\n  (critic): ContinuousCritic(\n    (features_extractor): CombinedExtractor(\n      (extractors): ModuleDict(\n        (achieved_goal): Flatten(start_dim=1, end_dim=-1)\n        (desired_goal): Flatten(start_dim=1, end_dim=-1)\n        (observation): Flatten(start_dim=1, end_dim=-1)\n      )\n    )\n    (qf0): Sequential(\n      (0): Linear(in_features=77, out_features=256, bias=True)\n      (1): ReLU()\n      (2): Linear(in_features=256, out_features=256, bias=True)\n      (3): ReLU()\n      (4): Linear(in_features=256, out_features=1, bias=True)\n    )\n    (qf1): Sequential(\n      (0): Linear(in_features=77, out_features=256, bias=True)\n      (1): ReLU()\n      (2): Linear(in_features=256, out_features=256, bias=True)\n      (3): ReLU()\n      (4): Linear(in_features=256, out_features=1, bias=True)\n    )\n  )\n  (critic_target): ContinuousCritic(\n    (features_extractor): CombinedExtractor(\n      (extractors): ModuleDict(\n        (achieved_goal): Flatten(start_dim=1, end_dim=-1)\n        (desired_goal): Flatten(start_dim=1, end_dim=-1)\n        (observation): Flatten(start_dim=1, end_dim=-1)\n      )\n    )\n    (qf0): Sequential(\n      (0): Linear(in_features=77, out_features=256, bias=True)\n      (1): ReLU()\n      (2): Linear(in_features=256, out_features=256, bias=True)\n      (3): ReLU()\n      (4): Linear(in_features=256, out_features=1, bias=True)\n    )\n    (qf1): Sequential(\n      (0): Linear(in_features=77, out_features=256, bias=True)\n      (1): ReLU()\n      (2): Linear(in_features=256, out_features=256, bias=True)\n      (3): ReLU()\n      (4): Linear(in_features=256, out_features=1, bias=True)\n    )\n  )\n)', 'lr_schedule': '<function constant_fn.<locals>.func at 0x7f0f350d25f0>', '_last_obs': "OrderedDict([('achieved_goal', array([[-3.25000000e-02, -3.25000000e-02, -3.46944695e-18,\n         3.25000000e-02,  3.25000000e-02,  6.50000000e-02]])), ('desired_goal', array([[-0.0325, -0.0325,  0.1175,  0.0325,  0.0325,  0.1825]])), ('observation',
…
_usage': 'False', 'replay_buffer_class': "<class 'stable_baselines3.her.her_replay_buffer.HerReplayBuffer'>", 'replay_buffer_kwargs': "{'n_sampled_goal': 4, 'goal_selection_strategy': 'future', 'max_episode_length': 600}", '_episode_storage': 'None', 'remove_time_limit_termination': 'False', 'actor': 'Actor(\n  (features_extractor): CombinedExtractor(\n    (extractors): ModuleDict(\n      (achieved_goal): Flatten(start_dim=1, end_dim=-1)\n      (desired_goal): Flatten(start_dim=1, end_dim=-1)\n      (observation): Flatten(start_dim=1, end_dim=-1)\n    )\n  )\n  (latent_pi): Sequential(\n    (0): Linear(in_features=68, out_features=256, bias=True)\n    (1): ReLU()\n    (2): Linear(in_features=256, out_features=256, bias=True)\n    (3): ReLU()\n  )\n  (mu): Linear(in_features=256, out_features=9, bias=True)\n  (log_std): Linear(in_features=256, out_features=9, bias=True)\n)', 'replay_buffer': '<stable_baselines3.her.her_replay_buffer.HerReplayBuffer object at 0x7f0f35182e90>', 'use_sde_at_warmup': 'False', 'log_ent_coef': "tensor([0.], device='cuda:0', requires_grad=True)", 'target_update_interval': 1, 'ent_coef_optimizer': 'Adam (\nParameter Group 0\n    amsgrad: False\n    betas: (0.9, 0.999)\n    capturable: False\n    differentiable: False\n    eps: 1e-08\n    foreach: None\n    fused: False\n    lr: 0.00025\n    maximize: False\n    weight_decay: 0\n)', 'critic': 'ContinuousCritic(\n  (features_extractor): CombinedExtractor(\n    (extractors): ModuleDict(\n      (achieved_goal): Flatten(start_dim=1, end_dim=-1)\n      (desired_goal): Flatten(start_dim=1, end_dim=-1)\n      (observation): Flatten(start_dim=1, end_dim=-1)\n    )\n  )\n  (qf0): Sequential(\n    (0): Linear(in_features=77, out_features=256, bias=True)\n    (1): ReLU()\n    (2): Linear(in_features=256, out_features=256, bias=True)\n    (3): ReLU()\n    (4): Linear(in_features=256, out_features=1, bias=True)\n  )\n  (qf1): Sequential(\n    (0): Linear(in_features=77, out_features=256, bias=True)\n    (1): ReLU()\n    (2): Linear(in_features=256, out_features=256, bias=True)\n    (3): ReLU()\n    (4): Linear(in_features=256, out_features=1, bias=True)\n  )\n)', 'critic_target': 'ContinuousCritic(\n  (features_extractor): CombinedExtractor(\n    (extractors): ModuleDict(\n      (achieved_goal): Flatten(start_dim=1, end_dim=-1)\n      (desired_goal): Flatten(start_dim=1, end_dim=-1)\n      (observation): Flatten(start_dim=1, end_dim=-1)\n    )\n  )\n  (qf0): Sequential(\n    (0): Linear(in_features=77, out_features=256, bias=True)\n    (1): ReLU()\n    (2): Linear(in_features=256, out_features=256, bias=True)\n    (3): ReLU()\n    (4): Linear(in_features=256, out_features=1, bias=True)\n  )\n  (qf1): Sequential(\n    (0): Linear(in_features=77, out_features=256, bias=True)\n    (1): ReLU()\n    (2): Linear(in_features=256, out_features=256, bias=True)\n    (3): ReLU()\n    (4): Linear(in_features=256, out_features=1, bias=True)\n  )\n)'}
