Using cuda device
Wrapping the env in a DummyVecEnv.

====== Model Architecture ======
• Policy: MultiInputPolicy(
  (actor): Actor(
    (features_extractor): CombinedExtractor(
      (extractors): ModuleDict(
        (achieved_goal): Flatten(start_dim=1, end_dim=-1)
        (desired_goal): Flatten(start_dim=1, end_dim=-1)
        (observation): Flatten(start_dim=1, end_dim=-1)
      )
    )
    (latent_pi): Sequential(
      (0): Linear(in_features=68, out_features=256, bias=True)
      (1): ReLU()
      (2): Linear(in_features=256, out_features=256, bias=True)
      (3): ReLU()
    )
    (mu): Linear(in_features=256, out_features=9, bias=True)
    (log_std): Linear(in_features=256, out_features=9, bias=True)
  )
  (critic): ContinuousCritic(
    (features_extractor): CombinedExtractor(
      (extractors): ModuleDict(
        (achieved_goal): Flatten(start_dim=1, end_dim=-1)
        (desired_goal): Flatten(start_dim=1, end_dim=-1)
        (observation): Flatten(start_dim=1, end_dim=-1)
      )
    )
    (qf0): Sequential(
      (0): Linear(in_features=77, out_features=256, bias=True)
      (1): ReLU()
      (2): Linear(in_features=256, out_features=256, bias=True)
      (3): ReLU()
      (4): Linear(in_features=256, out_features=1, bias=True)
    )
    (qf1): Sequential(
      (0): Linear(in_features=77, out_features=256, bias=True)
      (1): ReLU()
      (2): Linear(in_features=256, out_features=256, bias=True)
      (3): ReLU()
      (4): Linear(in_features=256, out_features=1, bias=True)
    )
  )
  (critic_target): ContinuousCritic(
    (features_extractor): CombinedExtractor(
      (extractors): ModuleDict(
        (achieved_goal): Flatten(start_dim=1, end_dim=-1)
        (desired_goal): Flatten(start_dim=1, end_dim=-1)
        (observation): Flatten(start_dim=1, end_dim=-1)
      )
    )
    (qf0): Sequential(
      (0): Linear(in_features=77, out_features=256, bias=True)
      (1): ReLU()
      (2): Linear(in_features=256, out_features=256, bias=True)
      (3): ReLU()
      (4): Linear(in_features=256, out_features=1, bias=True)
    )
    (qf1): Sequential(
      (0): Linear(in_features=77, out_features=256, bias=True)
      (1): ReLU()
      (2): Linear(in_features=256, out_features=256, bias=True)
      (3): ReLU()
      (4): Linear(in_features=256, out_features=1, bias=True)
    )
  )
)
• Replay Buffer: HER with 4 sampled goals
• Goal Selection: future

====== Starting Training ======
Logging to her_sac_picking_20250622-123040/her_sac_1
---------------------------------
| rollout/           |          |
|    ep_len_mean     | 601      |
|    ep_rew_mean     | 0        |
| time/              |          |
|    episodes        | 4        |
…
