…
                - 61
            "4": 3.7.16
            "5": 0.18.7
            "8":
                - 5
            "12": 0.18.7
            "13": linux-x86_64
action_noise:
    value: None
action_space:
    value: Box(9,)
actor:
    value: |-
        Actor(
          (features_extractor): CombinedExtractor(
            (extractors): ModuleDict(
              (achieved_goal): Flatten(start_dim=1, end_dim=-1)
              (desired_goal): Flatten(start_dim=1, end_dim=-1)
              (observation): Flatten(start_dim=1, end_dim=-1)
            )
          )
          (latent_pi): Sequential(
            (0): Linear(in_features=68, out_features=256, bias=True)
            (1): ReLU()
            (2): Linear(in_features=256, out_features=256, bias=True)
            (3): ReLU()
          )
          (mu): Linear(in_features=256, out_features=9, bias=True)
          (log_std): Linear(in_features=256, out_features=9, bias=True)
        )
algo:
    value: SAC
batch_size:
    value: 256
buffer_size:
    value: 1000000
critic:
    value: |-
        ContinuousCritic(
          (features_extractor): CombinedExtractor(
            (extractors): ModuleDict(
              (achieved_goal): Flatten(start_dim=1, end_dim=-1)
              (desired_goal): Flatten(start_dim=1, end_dim=-1)
              (observation): Flatten(start_dim=1, end_dim=-1)
            )
          )
          (qf0): Sequential(
            (0): Linear(in_features=77, out_features=256, bias=True)
            (1): ReLU()
            (2): Linear(in_features=256, out_features=256, bias=True)
            (3): ReLU()
            (4): Linear(in_features=256, out_features=1, bias=True)
          )
          (qf1): Sequential(
            (0): Linear(in_features=77, out_features=256, bias=True)
            (1): ReLU()
            (2): Linear(in_features=256, out_features=256, bias=True)
            (3): ReLU()
            (4): Linear(in_features=256, out_features=1, bias=True)
          )
        )
critic_target:
    value: |-
        ContinuousCritic(
          (features_extractor): CombinedExtractor(
            (extractors): ModuleDict(
              (achieved_goal): Flatten(start_dim=1, end_dim=-1)
              (desired_goal): Flatten(start_dim=1, end_dim=-1)
              (observation): Flatten(start_dim=1, end_dim=-1)
            )
          )
          (qf0): Sequential(
            (0): Linear(in_features=77, out_features=256, bias=True)
            (1): ReLU()
            (2): Linear(in_features=256, out_features=256, bias=True)
            (3): ReLU()
            (4): Linear(in_features=256, out_features=1, bias=True)
          )
          (qf1): Sequential(
            (0): Linear(in_features=77, out_features=256, bias=True)
            (1): ReLU()
            (2): Linear(in_features=256, out_features=256, bias=True)
            (3): ReLU()
            (4): Linear(in_features=256, out_features=1, bias=True)
          )
        )
device:
    value: cuda
ent_coef:
    value: auto
ent_coef_optimizer:
    value: |-
        Adam (
        Parameter Group 0
            amsgrad: False
            betas: (0.9, 0.999)
            capturable: False
            differentiable: False
            eps: 1e-08
            foreach: None
            fused: False
            lr: 0.0003
…
