…
goal:Box(6,), observation:Box(56,))', 'action_space': 'Box(9,)', 'n_envs': 1, 'num_timesteps': 0, '_total_timesteps': 50000, '_num_timesteps_at_start': 0, 'eval_env': 'None', 'seed': 0, 'action_noise': 'None', 'start_time': 1748981895.6420805, 'policy': 'MultiInputPolicy(\n  (actor): Actor(\n    (features_extractor): CombinedExtractor(\n      (extractors): ModuleDict(\n        (achieved_goal): Flatten(start_dim=1, end_dim=-1)\n        (desired_goal): Flatten(start_dim=1, end_dim=-1)\n        (observation): Flatten(start_dim=1, end_dim=-1)\n      )\n    )\n    (latent_pi): Sequential(\n      (0): Linear(in_features=68, out_features=256, bias=True)\n      (1): ReLU()\n      (2): Linear(in_features=256, out_features=256, bias=True)\n      (3): ReLU()\n    )\n    (mu): Linear(in_features=256, out_features=9, bias=True)\n    (log_std): Linear(in_features=256, out_features=9, bias=True)\n  )\n  (critic): ContinuousCritic(\n    (features_extractor): CombinedExtractor(\n      (extractors): ModuleDict(\n        (achieved_goal): Flatten(start_dim=1, end_dim=-1)\n        (desired_goal): Flatten(start_dim=1, end_dim=-1)\n        (observation): Flatten(start_dim=1, end_dim=-1)\n      )\n    )\n    (qf0): Sequential(\n      (0): Linear(in_features=77, out_features=256, bias=True)\n      (1): ReLU()\n      (2): Linear(in_features=256, out_features=256, bias=True)\n      (3): ReLU()\n      (4): Linear(in_features=256, out_features=1, bias=True)\n    )\n    (qf1): Sequential(\n      (0): Linear(in_features=77, out_features=256, bias=True)\n      (1): ReLU()\n      (2): Linear(in_features=256, out_features=256, bias=True)\n      (3): ReLU()\n      (4): Linear(in_features=256, out_features=1, bias=True)\n    )\n  )\n  (critic_target): ContinuousCritic(\n    (features_extractor): CombinedExtractor(\n      (extractors): ModuleDict(\n        (achieved_goal): Flatten(start_dim=1, end_dim=-1)\n        (desired_goal): Flatten(start_dim=1, end_dim=-1)\n        (observation): Flatten(start_dim=1, end_dim=-1)\n      )\n    )\n    (qf0): Sequential(\n      (0): Linear(in_features=77, out_features=256, bias=True)\n      (1): ReLU()\n      (2): Linear(in_features=256, out_features=256, bias=True)\n      (3): ReLU()\n      (4): Linear(in_features=256, out_features=1, bias=True)\n    )\n    (qf1): Sequential(\n      (0): Linear(in_features=77, out_features=256, bias=True)\n      (1): ReLU()\n      (2): Linear(in_features=256, out_features=256, bias=True)\n      (3): ReLU()\n      (4): Linear(in_features=256, out_features=1, bias=True)\n    )\n  )\n)', 'lr_schedule': '<function constant_fn.<locals>.func at 0x000001EE8C07C678>', '_last_obs': "OrderedDict([('achieved_goal', array([[-0.06426357, -0.06116914,  0.17556817,  0.02758888,  0.0306833 ,\n         0.24056817]])), ('desired_goal', array([[-0.03944146, -0.03944146,  0.21354938,  0.03944146,  0.03944146,\n         0.27854938]])), ('
…
ay_buffer.HerReplayBuffer'>", 'replay_buffer_kwargs': "{'n_sampled_goal': 2, 'goal_selection_strategy': 'future', 'max_episode_length': 200}", '_episode_storage': 'None', 'remove_time_limit_termination': 'False', 'train_freq': "TrainFreq(frequency=1, unit=<TrainFrequencyUnit.STEP: 'step'>)", 'actor': 'Actor(\n  (features_extractor): CombinedExtractor(\n    (extractors): ModuleDict(\n      (achieved_goal): Flatten(start_dim=1, end_dim=-1)\n      (desired_goal): Flatten(start_dim=1, end_dim=-1)\n      (observation): Flatten(start_dim=1, end_dim=-1)\n    )\n  )\n  (latent_pi): Sequential(\n    (0): Linear(in_features=68, out_features=256, bias=True)\n    (1): ReLU()\n    (2): Linear(in_features=256, out_features=256, bias=True)\n    (3): ReLU()\n  )\n  (mu): Linear(in_features=256, out_features=9, bias=True)\n  (log_std): Linear(in_features=256, out_features=9, bias=True)\n)', 'replay_buffer': '<stable_baselines3.her.her_replay_buffer.HerReplayBuffer object at 0x000001EE8BC26E48>', 'use_sde_at_warmup': 'False', 'log_ent_coef': 'tensor([0.], requires_grad=True)', 'target_update_interval': 1, 'ent_coef_optimizer': 'Adam (\nParameter Group 0\n    amsgrad: False\n    betas: (0.9, 0.999)\n    capturable: False\n    differentiable: False\n    eps: 1e-08\n    foreach: None\n    fused: False\n    lr: 0.00025\n    maximize: False\n    weight_decay: 0\n)', 'critic': 'ContinuousCritic(\n  (features_extractor): CombinedExtractor(\n    (extractors): ModuleDict(\n      (achieved_goal): Flatten(start_dim=1, end_dim=-1)\n      (desired_goal): Flatten(start_dim=1, end_dim=-1)\n      (observation): Flatten(start_dim=1, end_dim=-1)\n    )\n  )\n  (qf0): Sequential(\n    (0): Linear(in_features=77, out_features=256, bias=True)\n    (1): ReLU()\n    (2): Linear(in_features=256, out_features=256, bias=True)\n    (3): ReLU()\n    (4): Linear(in_features=256, out_features=1, bias=True)\n  )\n  (qf1): Sequential(\n    (0): Linear(in_features=77, out_features=256, bias=True)\n    (1): ReLU()\n    (2): Linear(in_features=256, out_features=256, bias=True)\n    (3): ReLU()\n    (4): Linear(in_features=256, out_features=1, bias=True)\n  )\n)', 'critic_target': 'ContinuousCritic(\n  (features_extractor): CombinedExtractor(\n    (extractors): ModuleDict(\n      (achieved_goal): Flatten(start_dim=1, end_dim=-1)\n      (desired_goal): Flatten(start_dim=1, end_dim=-1)\n      (observation): Flatten(start_dim=1, end_dim=-1)\n    )\n  )\n  (qf0): Sequential(\n    (0): Linear(in_features=77, out_features=256, bias=True)\n    (1): ReLU()\n    (2): Linear(in_features=256, out_features=256, bias=True)\n    (3): ReLU()\n    (4): Linear(in_features=256, out_features=1, bias=True)\n  )\n  (qf1): Sequential(\n    (0): Linear(in_features=77, out_features=256, bias=True)\n    (1): ReLU()\n    (2): Linear(in_features=256, out_features=256, bias=True)\n    (3): ReLU()\n    (4): Linear(in_features=256, out_features=1, bias=True)\n  )\n)'}
2025-06-03 17:02:51,642 WARNING MsgRouterThr:10296 [router.py:message_loop():75] message_loop has been closed
